simple_nn_fashion_mnist_sequential.onnx (onnx, 106782 bytes, 6 tensors)

1.weight f4 [32, 784]
00000000: 6fd9 4fbd bf08 9bbd e9b1 b3bd 42ac 22bd
00000010: 1025 83bd 3875 d3bd ee0a 22bd db90 b8bc
00000020: 3f1d 42bd 2a35 7cbd 7377 09bd 03ce c73c
00000030: 6eff 1a3c b92d de3e b539 ed3e bbb4 203e
00000040: 0d1c 90bc 68c6 4cbc 715c a7bd 8580 dd3d
00000050: c752 ab3d 5f6a 93bb 338c 51bd 0cbf 8ebd
00000060: 5af4 79bd a578 8fbd 215c ccbc 9fc2 17bd
00000070: f5b3 53bd 1d66 ebbc 342d b5bd 70c5 2bbd
00000080: e4a4 ccbd 7bf4 26be d6de 4abe a2e7 34be
00000090: 0092 87be 8e18 e3bd 6610 853d 5346 ef3d
000000a0: e296 4c3d a41e 9c3e 9ce6 e93e 5b9f 513e
000000b0: 9f8a 7e3e 627f 823e a77f 9e3d 498e 13bd
000000c0: 07cb e8bd f728 dabd 9003 12be 8837 16be
000000d0: e28f ccbd 2a4d 5cbd 9fe1 83bd a14e 46bd
000000e0: 2b8a 89bd c0a9 2bbd 772e 9abd 1bbc d4bd
000000f0: ba5b f7bd 172c 4fbe 446f 71be 817a 8bbe
00000100: 7957 4cbe 5e83 b63c c665 eb3d 1a23 9abd
00000110: a691 9e3d 5dd2 863e ba68 913e 6f74 fc3d
00000120: 9c3f 9e3d 8a0d 97bc 8208 d63d a062 a4bd
00000130: ccf8 73be ea67 68be c92c 9bbd aef1 57bd
00000140: b121 13be b4e6 ecbd 8e04 73bd 382e a0bd
00000150: ed8d acbc 28f6 a6bd 2fad 9abd da38 86bd
00000160: 9d6d 47bd c825 1ebd 818d 7abe 79fd 2dbe
00000170: da24 51bd deee 403c 4958 923d 746e 39bd
00000180: f5e2 853d eb91 343e 3946 1a3d cb99 e03d
00000190: 4acc 0f3c cfc5 323d fca2 733d 1952 03be
000001a0: 7711 4dbc 4d1a 7bbe fb9d a3bd b35b 57bb
000001b0: 2a64 afbd 39ee 07be 371d 67bd 4709 1bbd
000001c0: 94a2 1dbd f6c8 a4bd d7f8 97bd 20ef 5cbd
000001d0: 3a83 693d 9e03 57bd 559a aebd d1ba bbbd
000001e0: 784a e2bd fea0 a63d a9c2 92bc 65ef 3cbd
000001f0: 553d 413d 8f16 723c bd7c e23d 679c 053c
00000200: 4633 4f3b cffa bfbd a615 223d 8707 073d
00000210: 5075 0cbd 0a4e 60be 7cd0 27be f1a6 52bc
00000220: 6e60 0fbd d09a 05be 7502 f0bd d2ed bbbc
00000230: 0773 aebd a99c 64bd 12ff 74bc 70e3 bdbc
00000240: 0d91 693d 2bc5 b4bc 4c65 60bc f2cb 423d
00000250: e3fb c03c fcaa 883d 13db 7fbd a1df 263d
00000260: f3a3 19bc ed8d ee3d 9746 d03d ace7 4cbc
00000270: 12fe afbd 40c1 e8bd 8e24 9bbd cebc ca3d
00000280: 4425 6fbd 41e5 1ebd 7685 01be 3155 023d
00000290: a0fe 2cbd 824b c2bd 9438 b8bd f058 e5bc
000002a0: d9f8 93bd 4e72 a4bd 662f 96bc 73f3 853d
000002b0: 6f46 df3d 1d67 c43d e87f 0e3e 5350 cd3d
000002c0: 815f a73d 03bf 8b3d 5227 1fbe 02cf 7a3b
000002d0: 8f44 05be 8536 76bd 8c4c 46bd 6a23 b8bd
000002e0: a24d 01be 7820 22be ff24 12be 43a9 04bc
000002f0: 9493 303c 7cc5 023d db33 49bd a23b be3d
00000300: 9fee b0bd aed6 24be 309f b7bd c009 dabd
00000310: ea31 49bd da59 acbd 04bd a6bc 433e 7c3d
00000320: c01e 1e3e 2371 493e dc39 753e 1512 8e3e
00000330: bd71 963e 3a50 b63d 5cda 5bbd ade8 13be
00000340: 235c aabd 88cf 16be 8bba 6ebd cc6f 9bbd
00000350: d70a 4cbe 2a3b 1fbe 95d8 6ebd 00fe f93d
00000360: 8e65 9d3d 1171 0b3e 7830 6e3d 34b0 653d
00000370: dc55 b93b 7038 adbd 8192 d3bd 7d49 42bd
00000380: 46b9 9dbd 3835 e8bb 2dd8 f83a 356e 173e
00000390: 6937 4c3e 65e4 433e 8a9f 093e 2cb0 403e
000003a0: cbfa 873e 8a62 593e 6623 3b3d d60b 39be
000003b0: 58b5 27be 5dbd 5dbe 2c55 44be 22fd aabd
000003c0: 556e ce3c 29b7 e1bc fe88 943d 094c e43c
000003d0: 2b91 bcbd e101 db3c 5e7b 38ba 3f66 8b3d
000003e0: ea14 e83c bf13 97bd e2eb b2bd d92a 6bbd
000003f0: 5a3d 9cbd 0a92 ad39 99e1 333d c24c e13d
-0.05074447 -0.075700276 -0.08774168 -0.03971506 -0.064035535 -0.10325092 -0.039561205 -0.02253001
-0.047391172 -0.06157414 -0.03356118 0.024390226 0.009460313 0.4339426 0.4633309 0.15693943
-0.0175915 -0.012498476 -0.08171929 0.10815529 0.08365398 -0.0044987644 -0.051159095 -0.06970033
-0.061024047 -0.07005433 -0.024946274 -0.03705084 -0.051685292 -0.028735215 -0.088465124 -0.041936338
-0.09992388 -0.163042 -0.19811568 -0.17666486 -0.26478577 -0.11088668 0.064972684 0.11683335
0.04994858 0.30492127 0.45683753 0.20470946 0.24857567 0.2548781 0.077391915 -0.036024366
-0.113668494 -0.10652345 -0.14259171 -0.14669621 -0.09988381 -0.053784527 -0.06439518 -0.04841483
-0.067158066 -0.041909933 -0.07528394 -0.10387441 -0.12078042 -0.20231663 -0.235776 -0.272419
-0.19955243 0.022279438 0.11494021 -0.07526226 0.07742624 0.2633237 0.28400213 0.123268954
0.07726976 -0.018439073 0.104508415 -0.08026624 -0.23825377 -0.2269589 -0.075769015 -0.052720718
-0.14368321 -0.11567441 -0.059330516 -0.078213155 -0.02106377 -0.08152419 -0.075525634 -0.06553812
-0.04868852 -0.03861025 -0.24468042 -0.16991223 -0.051060535 0.0117757 0.07145745 -0.045271352
0.06537429 0.17633788 0.037664626 0.10966834 0.008776734 0.043645676 0.059481606 -0.12824287
-0.012516371 -0.24521752 -0.07989117 -0.0032861053 -0.08564027 -0.13274468 -0.056424346 -0.037850644
-0.038485125 -0.08046143 -0.07420509 -0.053938985 0.057009913 -0.052493684 -0.0852553 -0.09166492
-0.1104936 0.081361756 -0.017915087 -0.046126742 0.04717763 0.014775886 0.11058948 0.008154965
0.0031616255 -0.0937401 0.039571427 0.032966163 -0.034291565 -0.2190477 -0.16388124 -0.012857185
-0.035004072 -0.13047338 -0.11719219 -0.02294055 -0.085180335 -0.055813465 -0.014953392 -0.02317974
0.057023097 -0.022066673 -0.013696026 0.04755778 0.023557609 0.06673238 -0.062464785 0.040740613
-0.009377467 0.11648164 0.10169714 -0.012506407 -0.08593382 -0.113649845 -0.07575332 0.09899293
-0.05838515 -0.038792852 -0.12648568 0.031819526 -0.042235017 -0.09487058 -0.089951664 -0.02799651
-0.07225198 -0.080296144 -0.018333148 0.06540575 0.10902106 0.0958998 0.1391598 0.10025086
0.08172513 0.06823542 -0.15542343 0.003827036 -0.13014434 -0.060110588 -0.048412845 -0.0899113
-0.12627271 -0.15832698 -0.14271925 -0.008096996 0.010777373 0.031926617 -0.04912172 0.09288718
-0.08639263 -0.16097519 -0.089659095 -0.10646391 -0.049119867 -0.08415575 -0.020353802 0.061582815
0.15441418 0.19672064 0.23947853 0.2774817 0.2938365 0.08902021 -0.05367504 -0.14444228
-0.08318355 -0.14727604 -0.05828337 -0.07589683 -0.1992601 -0.15549913 -0.058312017 0.1220665
0.07685386 0.1361735 0.058151692 0.056076244 0.005655987 -0.0845803 -0.10330678 -0.047433365
-0.07701354 -0.0070864223 0.0018985324 0.14788134 0.19943012 0.19130094 0.13439766 0.18817204
0.26558527 0.21228996 0.045688055 -0.18070921 -0.16377771 -0.21654268 -0.19173115 -0.083490625
0.025199095 -0.027553158 0.07252692 0.027868288 -0.09207376 0.026734294 -0.0007037426 0.06806611
0.028330285 -0.07376813 -0.08736397 -0.05741391 -0.076288894 0.0003310594 0.04391632 0.110009685

1.bias f4 [32]
00000000: 8d4a 9e3c bb43 8ebb 6918 813c 27c0 993d
00000010: 77a3 c0bb 266d fcbc cc9a 553d 6aac 973b
00000020: 7473 d7bd f66b 963c 5ba3 84bd 6d0f c53d
00000030: 313d 393d 13d4 a3bd 3417 cc3b 6435 653d
00000040: 8a4c b43d 4576 41bd 90b9 a13c 364c ad3c
00000050: 10ba 88bc d795 4abd 5a5d 77bd c137 afbc
00000060: 7cbb 243b ef0e 22bd 8be4 143d 566f 9cbd
00000070: 894a abbc 7056 203d be95 a0bd 4217 a8bd
0.019322658 -0.00434157 0.01575871 0.07507353 -0.0058788615 -0.030813765 0.05214958 0.0046287077
-0.10520068 0.018362027 -0.0647647 0.09622083 0.045224372 -0.07999434 0.006228352 0.05595912
0.08803661 -0.04723193 0.019741803 0.021154504 -0.016690284 -0.049459305 -0.06039176 -0.02138889
0.0025136163 -0.039565023 0.036350768 -0.07638423 -0.020909565 0.039144933 -0.07841061 -0.08207561

3.weight f4 [32, 32]
00000000: d303 1abd 1f52 cdbe 5efb df3d 6214 9f3e
00000010: 198d bdbd ea5e 64bd a636 97bd fc53 b03d
00000020: 6f74 35bd 49a9 1a3e fce6 a6bd 824e a7be
00000030: 70b5 243e d6e1 5b3e bded 773d 863c 2fbe
00000040: af11 90bc 7f63 0a3c a427 5fbe bcd0 d4bc
00000050: 3d5b 9dbe fb11 10be c540 183e f039 633e
00000060: 6efb a8bd 3500 2cbe ede2 88bd cb59 803e
00000070: 7c3e b93b 3e1e 79be 1603 c13e 2acc 273e
00000080: 8cb5 1ebe 655b 06bc bdb8 3abd c76f 513e
00000090: 612f a1bb f19c 7e3d 4ca6 be3d 1ea6 f3bb
000000a0: 5e78 abbd 9ba7 273e f4e1 013e 2850 10be
000000b0: dddc 1d3d a244 873e a958 ea3d a3e2 293e
000000c0: eed0 32bb 9ada c2bd d5c7 24bd 5b28 0cbe
000000d0: aff9 12be 425e 913e ad8a 3e3e 6961 8dbe
000000e0: 8dc4 8abe 2532 913d d4ac b13e 313b 44be
000000f0: a521 183e bd4b 113d 7845 f73c 6602 97be
00000100: 4733 363d 37cd c63d f23c 50be d3c2 a2be
00000110: fca4 edbd b21c edbd ad4e 28be f133 07be
00000120: dd42 1f3e 83a4 a8bb b0f6 9e3e 152d 843e
00000130: 2c69 573c f4fc fabb f101 943e 8ae9 483e
00000140: 5ba4 53be e7f1 36bd 0a58 b2bd 0536 40bd
00000150: 7f0c 4b3e 1fe7 133e 16f3 e6be 557b bb3e
00000160: 6b57 923d 5862 d73d e93e 0a3e 7b12 4cbe
00000170: cd07 2f3e 25a6 833e 8d2f 533d 7794 bc3e
00000180: f5d2 bebd adcf dc3d eef5 ab3d 60d9 573b
00000190: 7522 953c cde5 cd3d e73c 3d3e 9356 a93d
000001a0: 9df3 053b 9e60 8abd 5378 55be 71a8 adbd
000001b0: f7ec 4ebe 4fb5 9cbd 9f00 083d 7585 b73d
000001c0: 1d36 b1be 4ac7 48be 1ca4 833e 2e42 ddbd
000001d0: 728d ccbd c3b0 3ebe 59e0 ea3d 6322 d3be
000001e0: d544 fe3d 26c3 053e 47ab f0be 0cec 4e3e
000001f0: 905a e0bd 56bf 473e 3f01 323d a7de b9be
00000200: f72d c8bd 6aae 143d 969f f33d feda 833e
00000210: 67eb 33be 3a8a 383d c1e8 00bf f13b 5b3d
00000220: e3c7 8fbd 0061 4abd 5f29 7dbd 6f27 70bd
00000230: 22b4 933d 367a da3e 9b90 ec3d 38c1 893d
00000240: 8590 903e b1e0 c8bd 7163 0abf 4dec a13e
00000250: a00b 8cbe 39e6 ac3e eaa2 db3d 98c9 18be
00000260: 482a 4fbe f904 203e cf1f 41be 3025 dfbb
00000270: 4698 04be 4460 273d 8694 353c 3c16 723e
00000280: 3680 5e3e 7cbf eebd 6cf1 1cbe 01c5 0bbe
00000290: 66f8 43bd 9a69 b8bc 6f6b 1c3d 1b6d 3bbc
000002a0: 0621 5dbe af52 673e 9d5d 7c3e b431 6bbe
000002b0: 6a5f 723e 7e8d 873e 38f0 633e 2e8f 6fbe
000002c0: 51bf db3e f5e6 813d d40d d4bd d826 9fbe
000002d0: 563b 7b3d cf70 37be bc45 9d3e d6ba cd3c
000002e0: b474 2abd 592e c4bb 1a88 1cbe 6980 e1bd
000002f0: f1dd e9bb ad34 afbd 3659 83bc 22f4 3bbd
00000300: 8d34 8f3e a027 e03b 28f0 fc3c 0a7c 033e
00000310: 00b8 4cbe 8876 943c 508e b3be b2f5 c6bd
00000320: 3c0a 7c3c 15e7 023e f09a 74be 888b 073e
00000330: 4839 dbbe 91b9 133d dbc9 fc3d 00f0 babe
00000340: 1b91 d03d 4c75 063e f4ef 30be 81d5 56be
00000350: aa68 993d 3b81 6d3e 6d49 4abd ef06 41be
00000360: 8195 503e 741d 9a3c ebcb 523e 42cc 76bd
00000370: 3805 f1bd 0fda 5f3e 1bc0 85bc 4146 e5bd
00000380: 944e 153e fbe3 0cbe 6570 4d3e 73b9 1d3d
00000390: 269b 1a3d 022d 9fbd 9c7c bdbd 73f5 f4bd
000003a0: 8255 2d3e a51a 453e f622 f03d 01cd 193d
000003b0: 7b5c 99bd 17ab 283d e0cb b6bd 41b6 68be
000003c0: 1f6e 00be 211d a8be af80 bfbd 1b2f 823c
000003d0: 1176 893d 9c9f 183e a1ab 8fbe a191 35be
000003e0: 67b5 0b3e ec46 ffbd cbbc 5b3e 4aa1 933e
000003f0: 6b7f 0b3e d96a 473e 1eb7 803d 147e 973d
-0.037601303 -0.40101716 0.10936616 0.31070238 -0.09255428 -0.05575458 -0.0738347 0.08609769
-0.044300493 0.1510364 -0.081495255 -0.32677084 0.16084838 0.21472868 0.06052946 -0.17112932
-0.017586557 0.008446573 -0.21792465 -0.025978439 -0.30733672 -0.14069359 0.14868458 0.2219007
-0.082510814 -0.16796954 -0.06683908 0.25068507 0.0056532007 -0.24327943 0.37697667 0.16386476
-0.15498942 -0.008200501 -0.045586336 0.20452796 -0.004918978 0.06216139 0.09309062 -0.007435574
-0.083725676 0.1637253 0.1268385 -0.14093077 0.03854071 0.2641955 0.11442692 0.16590361
-0.0027285176 -0.09514351 -0.040229637 -0.1368727 -0.14353059 0.28392226 0.18607588 -0.2761338
-0.2710308 0.070896424 0.3470217 -0.19163205 0.14856584 0.03547262 0.030184492 -0.29494017
0.044482496 0.097071104 -0.20335749 -0.31789264 -0.11603734 -0.11577739 -0.16436262 -0.13203408
0.1555285 -0.0051465645 0.31047583 0.25815645 0.0131476335 -0.007659549 0.2890773 0.19620338
-0.20668165 -0.04466429 -0.08708198 -0.046926517 0.19828986 0.14443634 -0.45107335 0.36617532
0.0714558 0.105168045 0.13500561 -0.19928925 0.1709282 0.25712696 0.05155902 0.3683202
-0.093175806 0.107817985 0.08396517 0.0032935962 0.018204907 0.10053597 0.18480264 0.08268466
0.0020439394 -0.067567095 -0.20846681 -0.08479393 -0.20207582 -0.07651769 0.033203717 0.08961002
-0.34611598 -0.19607273 0.25711143 -0.108036384 -0.09987916 -0.18622117 0.11468572 -0.41237172
0.124154724 0.13062724 -0.47005674 0.20207232 -0.109547734 0.19506583 0.04345822 -0.36302683
-0.09774392 0.036299147 0.11895673 0.25753015 -0.17570268 0.045053698 -0.50355154 0.05352396
-0.07020547 -0.049408913 -0.061807033 -0.058631357 0.07212092 0.42671365 0.11551019 0.06726307
0.2823526 -0.098084815 -0.54057986 0.31625596 -0.2735262 0.33769396 0.10724433 -0.14920652
-0.20230973 0.15626897 -0.1885979 -0.006809853 -0.12948713 0.04086329 0.011082774 0.23641294
0.21728596 -0.116576165 -0.1532647 -0.1364937 -0.047844313 -0.022511292 0.038188394 -0.011439587
-0.21594629 0.22590135 0.24645086 -0.22968179 0.2366921 0.26475137 0.22259605 -0.23394462
0.429194 0.0634288 -0.103542 -0.31084323 0.061335884 -0.17914127 0.30717266 0.025113504
-0.041615203 -0.0059869704 -0.15286294 -0.110108204 -0.007137053 -0.08554969 -0.01603375 -0.04588712
0.2796978 0.006840661 0.030876234 0.12840286 -0.19992065 0.018122926 -0.35069513 -0.097148314
0.015383299 0.12783463 -0.23887229 0.1323682 -0.4281714 0.03606564 0.123431884 -0.3651123
0.10183927 0.13130683 -0.17279035 -0.20979883 0.07490666 0.23193829 -0.04938643 -0.18850301
0.20369531 0.018812872 0.20585601 -0.06025339 -0.117685735 0.21860527 -0.016326955 -0.111950405
0.14580756 -0.13758843 0.20062406 0.038506936 0.037745617 -0.077722564 -0.09252283 -0.11960878
0.1692715 0.19248445 0.11725418 0.037549023 -0.074883424 0.04117879 -0.08925605 -0.22725774
-0.12542008 -0.32834724 -0.09350716 0.015891602 0.067119725 0.14904636 -0.2806063 -0.17731334
0.13643418 -0.12464699 0.21458738 0.2883399 0.13622825 0.19474353 0.06284927 0.07397094

3.bias f4 [32]
00000000: 980a 33be a6c2 ed3c 8284 85bd 25d4 c5bd
00000010: 00f9 353d 9dea 183e cddc 893e dc41 79bd
00000020: e4d9 43bd 04ec 393c 2069 323b 6592 a3bd
00000030: aa7e 3e3e 271c bd3d 6f82 2e3e 62bd 2c3c
00000040: c73c cb3d 5e11 443e 4666 4fbe ec5f 3a3e
00000050: 3619 07be 1e53 fe3d 159b 723d a687 cabd
00000060: 2e59 ce3d 6dd2 85bd 6a2a d73d b7e1 d6bc
00000070: beac 17be 0cff ee3d abd0 953e 1fcd 5cbd
-0.1748451 0.02902348 -0.065194145 -0.09659604 0.044426918 0.14933248 0.2692627 -0.060853824
-0.04781522 0.011347774 0.0027223304 -0.07986907 0.18603006 0.09233885 0.17041944 0.010543199
0.09923702 0.1914725 -0.20253858 0.18200654 -0.13193211 0.12418197 0.05922993 -0.09889154
0.100756034 -0.06534276 0.10506137 -0.026230676 -0.1481199 0.1166974 0.29260764 -0.053906556

5.weight f4 [10, 32]
00000000: 07dc 533e 9208 923d 3308 033e 6532 27be
00000010: 2249 9f3e b895 31bd ee18 94be 0308 59bd
00000020: f27a 853e 29b8 5a3e 6b70 7ebe e34c b2be
00000030: ca53 6f3e 49f0 64be 1d34 c03d 45b1 1dbb
00000040: d75e a7bd 5f96 01be cdf9 b1be f924 e03d
00000050: 6a2e e7be 2a92 d7bd c2b1 00be b651 16be
00000060: e116 b7be 3a03 483e 033e 943d 77d0 36be
00000070: fa0a e0bd 44b3 2b3e 6451 81be e79e bdbd
00000080: 6cf3 033f 5483 e53c 646c cebb 3184 49bc
00000090: 2456 ccbe 8d89 8bbd d60a 4c3f bf4c 723e
000000a0: 620b 2d3d d75e 48be 807f 64be 7c9a 01bd
000000b0: 26e2 32be ad4f 06bf 5c56 47be d916 303e
000000c0: 4ff5 f63d 2295 80bd d13c 963e 6732 ad3e
000000d0: f51c 4dbe 57dc a0be 86a7 af3d 1ee4 38be
000000e0: a45b 0abf f4d6 4dbb 01e5 e4be 9b12 813d
000000f0: 5575 003d 65ae 0c3e 2007 3d3e f6ab e8bd
00000100: e0db 89be e0c4 a9be 9d0c 2f3e 76cf 13be
00000110: d86c 49bd 7119 d2be c68a 49be 975d 433e
00000120: 078e ab3c 59f3 183e 2ec5 a5be 2871 90be
00000130: 54fa a23d 33d9 b93d 85a6 efbd fc07 eabe
00000140: 85ed 84be e3ee 793c 5dbe a5bd 4715 9fbd
00000150: 47c6 07bf 2bcf 193d 7a21 2abb 74d9 553e
00000160: a22d 84bd 7126 8cbe 8564 c03d 9ab4 493e
00000170: 6126 d7be 6dea 1e3e 77fa 0f3e e372 afbd
00000180: bd0c 2fbf 6b1b cf3d 13ba 2a3e 55da c9be
00000190: 1516 c9be 222b f7bd bfea 1d3e 0cd7 69be
000001a0: fabe ddbb 277e 83bd 0b90 a73e 3c19 603e
000001b0: 24ce 7d3d f403 f83d e51d b6bd 756b 5a3e
000001c0: e58d 3bbd 0085 673d 2f2a e3bd c280 90bd
000001d0: 04c9 d2be a086 8abe 1136 253e 8152 86be
000001e0: c0f2 253d b50f 4fbe e7da f0bd 54da 48be
000001f0: 6680 7bbd 9b20 7ebe af79 183e 6eed 24bb
00000200: 98bb fb3e 633f 083e 0a03 c73d 9bf2 283e
00000210: c08c 263e 1723 2cbe 5f0b 223e 0140 2d3e
00000220: 94da 0cbe ef98 8fbd 9b25 12bf e30d 2b3e
00000230: b170 063e 53a5 8abd 5a90 87be 293f adbd
00000240: f608 0fbe fb09 0a3e 7161 1b3e b8c3 893d
00000250: 57e8 e1be 7c2d 023e 491c 6f3e 6650 603b
00000260: 6456 5d3e dfe1 2abe a99e 80be 2f71 033e
00000270: 9a34 eebe f218 0b3e 0858 dc3c 2d43 45be
00000280: 2e06 aa3d d8d8 753e fc66 60be d5c4 e5be
00000290: b29f 34bf a99c 1d3e d809 54bf ffb5 c6bd
000002a0: 9f28 263d 33fe e8bc 97ad 923e 449f 4dbd
000002b0: fb4e b2be 9184 e2bd 83de 7c3d fff7 e5be
000002c0: 4b22 f8bd f33e fd3d 1ad8 813e a1f0 8bbe
000002d0: 53c8 743d a35d b3be 07e0 1cbf 9823 3fbd
000002e0: 855e 903d 4c58 02be 2e6f 893e 9367 ad3d
000002f0: 7efb bc3e e1ac ac3d a811 82be f9cf 203e
00000300: 70d0 2dbe fc8e 8fbe 04af 423e 6bcf a33e
00000310: 11f4 19be 5a75 a33e 4e28 32be 7414 8d3d
00000320: e9a3 14be 45df 263d 123d 68be 42bd 83bd
00000330: f15c 853e fc24 d4bd b672 3b3e 66cd b0bd
00000340: 2739 87bc 32b3 b1be 1756 f1be 896e 52be
00000350: a73d 0dbf 9898 b83d 6f5d 9b3d 5794 5ebd
00000360: 2891 323c 81cc 0a3e 6954 f2bb 65a2 3f3e
00000370: f6dd 6e3c 85c4 00be f7b3 35be 809d 173d
00000380: 4345 5cbe 409c 7ebd 7699 29bf bb7c 943e
00000390: d091 36bd 5cda 813c 02f1 6abe f2fb b0be
000003a0: dd11 51bf a4f1 2c3d 695e ab3d 6047 7cbe
000003b0: c8a4 56bb 104e 923e ff3d 09be 421f 9dbc
000003c0: 53b2 b63d 49e7 363e 8def 1f3e c578 b33e
000003d0: 8302 183e ab86 06bc b604 10bf 478c 6bbe
000003e0: 78f1 9fbe 28c1 cfbd 982d 35bd 8de9 39bb
000003f0: f5fe 45be 40a3 57be 5988 35be effd a73c
0.20689403 0.07130541 0.12796097 -0.16327818 0.31110483 -0.043355674 -0.2892527 -0.052986156
0.26070362 0.21359314 -0.24847572 -0.34824285 0.23371807 -0.22357287 0.0938494 -0.002406196
-0.08172386 -0.12655018 -0.34760895 0.10944552 -0.451526 -0.105259255 -0.12567809 -0.14679608
-0.35759643 0.19532481 0.0723839 -0.1785296 -0.109395936 0.16767603 -0.2525741 -0.09258824
0.5154331 0.028016724 -0.0062995423 -0.012299583 -0.3990947 -0.06813345 0.79704034 0.23662089
0.042247184 -0.19567429 -0.22314262 -0.03164147 -0.17469081 -0.52465326 -0.19466537 0.17196216
0.12058508 -0.06278445 0.29343274 0.33827516 -0.20030577 -0.31418106 0.085768744 -0.1805577
-0.5404608 -0.003140864 -0.44705966 0.06302377 0.031361897 0.13738401 0.18459749 -0.11360924
-0.26925564 -0.33158016 0.17094655 -0.14434609 -0.049176067 -0.41035035 -0.19681844 0.1907867
0.020941747 0.1493658 -0.32377 -0.2821133 0.079579026 0.090746306 -0.11701683 -0.45709217
-0.25962463 0.015254709 -0.080929495 -0.0776773 -0.5303692 0.037551086 -0.0025959895 0.20883733
-0.06454016 -0.27373078 0.093941726 0.196978 -0.42021468 0.15519114 0.14060389 -0.08566835
-0.6837881 0.101126514 0.16672544 -0.39424387 -0.3927466 -0.12068774 0.1542158 -0.2283594
-0.006767151 -0.06420546 0.32727084 0.21884626 0.06196417 0.12110129 -0.08892421 0.21330054
-0.045789618 0.056523323 -0.1109203 -0.070558086 -0.41168988 -0.27055836 0.16133906 -0.2623482
0.040514708 -0.20220836 -0.11760502 -0.19614536 -0.061401747 -0.24817125 0.14890169 -0.0025165933
0.4916656 0.1330543 0.097173765 0.16498797 0.1626463 -0.1681026 0.1582465 0.16918947
-0.13755256 -0.07011592 -0.5708863 0.16704516 0.13128926 -0.06769814 -0.2647732 -0.084593125
-0.13968262 0.1348037 0.1517389 0.067267835 -0.44122574 0.12712663 0.23350634 0.0034227609
0.21614987 -0.16687725 -0.25121048 0.12836145 -0.46524507 0.13583735 0.026897445 -0.19263907
0.0830196 0.240085 -0.21914285 -0.44876733 -0.70556176 0.15391792 -0.8282752 -0.09702682
0.040566083 -0.028441524 0.28648064 -0.050200716 -0.34825882 -0.11060441 0.06173564 -0.44915769
-0.12115916 0.12365522 0.25360185 -0.27332023 0.059761357 -0.35032377 -0.6127934 -0.046664804
0.07049278 -0.12728995 0.26842636 0.08467021 0.36910623 0.084314115 -0.25404096 0.15704335
-0.16974044 -0.28038776 0.19012076 0.31994185 -0.1503451 0.3192547 -0.17398188 0.06888667
-0.14515652 0.04074027 -0.22679546 -0.064325824 0.2604747 -0.10358617 0.18305477 -0.08632927
-0.016506745 -0.34707028 -0.47135994 -0.20549978 -0.551722 0.0901348 0.075861804 -0.054340687
0.010898866 0.13554575 -0.0073953164 0.18714292 0.014579287 -0.12574966 -0.17744432 0.037015438
-0.21510796 -0.06216073 -0.6624979 0.29001412 -0.04457265 0.015851192 -0.229435 -0.3456722
-0.8166788 0.042222634 0.08367617 -0.24636602 -0.0032752026 0.28575182 -0.13402556 -0.019179944
0.089207314 0.17861666 0.15618725 0.35053077 0.14844708 -0.008210818 -0.5625719 -0.2300273
-0.31238914 -0.101442635 -0.044232935 -0.0028367967 -0.1933554 -0.21058369 -0.17727794 0.020506827

5.bias f4 [10]
00000000: 3bce 14be 5db7 c8bc 840b d73d 300a 863d
00000010: 8b99 5ebd 1a75 d03b 5870 e33d c657 1abe
00000020: 1256 1b3e 6af3 d93c
-0.14531796 -0.024501497 0.10500243 0.06544912 -0.05434565 0.006361616 0.11105412 -0.15072545
0.15169552 0.026605327
