simple_nn_fashion_mnist_sequential_50e.pth (torch, 109054 bytes, 6 tensors)

1.weight f4 [32, 784]
0.016738562 0.059361793 0.040624365 0.06507807 0.08725218 0.119414814 0.04377356 0.010113919
0.018662674 -0.030013187 0.041614097 0.07867258 0.7464998 0.5785652 0.3234277 0.74341345
0.40892348 0.11977523 0.025069138 0.16512622 0.23638356 0.21970615 0.11498363 0.075608455
0.013936702 0.010969699 0.049944256 0.06131725 0.034004536 0.005450565 -0.004434084 0.000806061
0.016838538 -0.093879454 -0.05115437 -0.014392154 -0.27271295 -1.0523694 -0.7304456 -0.45685214
0.07188503 0.74634147 0.85417295 0.3572594 -0.4006882 0.31931534 -0.46178997 -0.4322695
-0.09969012 -0.16967401 -0.0071282615 0.015319111 -0.061275274 0.024160756 0.014354905 0.052918375
0.035740886 0.050422054 0.07187517 0.084396966 -0.07768003 -0.101071075 -0.3550898 -0.1452451
-0.29987976 0.3313069 0.0797832 0.22755988 -0.1115044 0.18998684 1.08185 0.36984584
0.19089381 0.17560819 0.028589278 -0.14752364 -0.32359415 -0.2283174 -0.186529 -0.10136793
-0.066647984 -0.011866577 0.050347228 -0.0043027094 0.03533605 -0.005219506 0.06039323 -0.026286585
-0.20387574 -0.33786705 0.01671571 0.34927335 -0.22596915 0.12618336 -0.12744102 -0.062653996
-0.85993415 0.67969126 0.7350701 -0.11063378 -0.51760113 -0.13644347 0.1549697 -0.1807564
0.14173359 0.18622439 -0.06169716 -0.14607513 -0.12898035 0.0005047176 0.041721027 0.0352749
0.01323493 -0.0028522436 0.030983059 -0.094061024 -0.2245801 -0.08963004 0.11520347 0.08512451
0.21253288 0.34282023 -0.07230146 0.3758356 0.100366205 0.18012649 0.522042 -0.2735378
-0.04532568 0.14263499 -0.29092667 -0.02157136 0.5290061 0.057960175 0.11859693 -0.33477196
-0.062377248 0.011635981 0.03394276 -0.0011876295 0.016111631 0.01990407 0.05646812 -0.02088539
-0.21548474 -0.2512032 -0.24018885 -0.30429193 -0.09033385 0.76769453 -0.041396093 0.07815813
-0.17698468 0.666976 0.07556584 -0.45452628 0.19178697 0.04025741 -0.19886397 -0.16585727
-0.09559953 0.3080343 0.075388 -0.1641341 -0.078870595 -0.06319265 -0.018497728 -0.0074982876
0.03522435 -0.0076006483 0.012986655 -0.072902724 -0.051311933 0.21494013 0.15515906 -0.39538682
0.07400025 0.6111665 0.17350326 0.32091653 -0.5355608 0.11458422 -0.029636903 -0.7224048
-0.2589295 0.12863378 -0.055378687 -0.2796103 -0.34450197 0.32403386 0.28587216 0.023092117
0.04202725 -0.12394271 -0.04635807 0.06369525 0.008628886 -0.032309517 -0.027707614 0.07977629
0.11259216 0.5642629 0.034958366 -0.16997573 -0.2759525 0.3929663 0.3087162 -0.09633614
-0.363386 0.06930757 0.012070794 -0.19811414 0.08547613 0.23776226 0.16443394 0.040897556
0.016157044 -0.13285068 0.157808 0.044612516 0.06668779 -0.10666126 0.02144845 0.049109932
-0.007004167 0.028837994 0.09618506 0.08644577 0.15757455 0.21249244 0.038345184 -0.49104834
-0.17969131 0.0315503 -0.046492293 0.25818402 -0.09656683 -0.19448341 -0.046811104 -0.092468694
0.17852885 0.025689676 -0.32306412 -0.20093739 -0.047052115 -0.27333102 -0.0062203007 0.17045353
-0.057322387 0.0008371764 0.0058105546 -0.022754118 -0.008614423 0.08194934 0.22391096 0.12712315
00000000: 4f1f 893c 5a25 733d bc65 263d a747 853d
00000010: 45b1 b23d c18f f43d e84b 333d dab4 253c
00000020: 77e2 983c 37de f5bc 8b73 2a3d 171f a13d
00000030: 9c1a 3f3f d91c 143f 5198 a53e 5850 3e3f
00000040: 6b5e d13e b74c f53d cb5d cd3c d916 293e
00000050: 880e 723e a6fa 603e 8a7c eb3d 9bd8 9a3d
00000060: c456 643c 41ba 333c 5992 4c3d cc27 7b3d
00000070: 5748 0b3d a79a b23b cb4b 91bb d74d 533a
00000080: f9f0 893c df43 c0bd 3f87 51bd 12cd 6bbc
00000090: 08a1 8bbe 0ab4 86bf 7cfe 3abf 86e8 e9be
000000a0: 7538 933d 3c10 3f3f 14ab 5a3f b4ea b63e
000000b0: 0127 cdbe 4d7d a33e bc6f ecbe 6e52 ddbe
000000c0: 552a ccbd 06bf 2dbe 3194 e9bb 02fd 7a3c
000000d0: c8fb 7abd c7ec c53c d630 6b3c f0c0 583d
000000e0: 0965 123d 5b87 4e3d 4a33 933d 51d8 ac3d
000000f0: b516 9fbd 5afe cebd 55ce b5be 22bb 14be
00000100: d789 99be 0fa1 a93e 6065 a33d 7505 693e
00000110: 6b5c e4bd e98b 423e 107a 8a3f 6f5c bd3e
00000120: ab79 433e a2d2 333e 1034 ea3c 7010 17be
00000130: 22ae a5be 09cc 69be 7501 3fbe fd99 cfbd
00000140: bd7e 88bd 086c 42bc e538 4e3d befd 8cbb
00000150: 89bc 103d 6408 abbb e45e 773d f756 d7bc
00000160: cdc4 50be e9fc acbe 62ef 883c f5d3 b23e
00000170: 7564 67be 3636 013e e67f 02be bd50 80bd
00000180: a524 5cbf 3f00 2e3f 8e2d 3c3f f793 e2bd
00000190: 8281 04bf d6b7 0bbe 61b0 1e3e 3518 39be
000001a0: 9c22 113e 9bb1 3e3e 29b6 7cbd b894 15be
000001b0: 6d13 04be 064f 043a abe3 2a3d 6a7c 103d
000001c0: 52d7 583c b5ec 3abb 2fd0 fd3c 11a3 c0bd
000001d0: 53f8 65be f48f b7bd ccef eb3d c255 ae3d
000001e0: 38a2 593e 2286 af3e ca12 94bd 866d c03e
000001f0: cc8c cd3d 1473 383e 8ba4 053f 260d 8cbe
00000200: 6ca7 39bd e80e 123e 57f4 94be 6cb6 b0bc
00000210: f26c 073f a667 6d3d f2e2 f23d 3b67 abbe
00000220: 497f 7fbd d7a4 3e3c 9007 0b3d 3caa 9bba
00000230: 8afc 833c dc0d a33c 1e4b 673d d617 abbc
00000240: 08a8 5cbe b59d 80be 11f4 75be 27cc 9bbe
00000250: f400 b9bd a187 443f f38e 29bd 5f11 a03d
00000260: 793b 35be f0be 2a3f 43c2 9a3d abb7 e8be
00000270: ce63 443e f4e4 243d ffa2 4bbe 7dd6 29be
00000280: b0c9 c3bd acb6 9d3e 0665 9a3d c512 28be
00000290: e886 a1bd 266b 81bd 8c88 97bc 32b4 f5bb
000002a0: 6847 103d dc0e f9bb fbc5 543c 064e 95bd
000002b0: 762c 52bd 4419 5c3e 04e2 1e3e 2470 cabe
000002c0: 718d 973d 6875 1c3f d7aa 313e 2c4f a43e
000002d0: 831a 09bf 22ab ea3d 17c9 f2bc 85ef 38bf
000002e0: 6892 84be 93b8 033e c3d4 62bd 1529 8fbe
000002f0: 9062 b0be c4e7 a53e d65d 923e ae2b bd3c
00000300: c424 2c3d add5 fdbd f6e1 3dbd a872 823d
00000310: 2c60 0d3c fc56 04bd 14fb e2bc c061 a33d
00000320: b896 e63d 8973 103f 8130 0f3d 1e0e 2ebe
00000330: a549 8dbe e132 c93e 0d10 9e3e e24b c5bd
00000340: bb0d babe 21f1 8d3d 94c4 453c 6fde 4abe
00000350: 1c0e af3d f377 733e 5f61 283e 3284 273d
00000360: c75b 843c 020a 08be 6c98 213e 9dbb 363d
00000370: 9c93 883d 3871 dabd a9b4 af3c 7f27 493d
00000380: 3683 e5bb a83d ec3c acfc c43d 7b0a b13d
00000390: 395b 213e 9e97 593e d70f 1d3d b06a fbbe
000003a0: 0001 38be e33a 013d b46e 3ebd b230 843e
000003b0: d5c4 c5bd a926 47be 00bd 3fbd 3a60 bdbd
000003c0: 44d0 363e 2873 d23c a968 a5be 88c2 4dbe
000003d0: b8b9 40bd 0bf2 8bbe aad3 cbbb 5f8b 2e3e
000003e0: e1ca 6abd f575 5b3a 7766 be3b d866 babc
000003f0: 8223 0dbc 0ed5 a73d ea48 653e 922c 023e

1.bias f4 [32]
-0.043161735 -0.024355901 -0.01665271 -0.086978324 -0.101026624 -0.023825748 -0.0312506 0.09959851
0.030312335 0.040859755 -0.01528209 0.068426766 -0.06624986 -0.08269146 -0.063150324 -0.048472617
-0.125392 -0.11891156 -0.0011100185 -0.04837013 -0.07017697 -0.05960867 0.0015963989 -0.110163614
-0.02658453 0.030864606 -0.21538801 -0.15800303 -0.011823721 0.08183201 0.22396913 -0.03945729
00000000: 5cca 30bd 0786 c7bc 446b 88bc b121 b2bd
00000010: 0ce7 cebd 372e c3bc a100 00bd 4efa cb3d
00000020: 9351 f83c 8f5c 273d bb61 7abc 5523 8c3d
00000030: 02ae 87bd 245a a9bd f554 81bd 398b 46bd
00000040: c366 00be e787 f3bd 0a7e 91ba c21f 46bd
00000050: f1b8 8fbd 3928 74bd 423e d13a 769d e1bd
00000060: cdc7 d9bc c5d7 fc3c ad8e 5cbe 8ccb 21be
00000070: 48b8 41bc 8a97 a73d 2a58 653e f89d 21bd

3.weight f4 [32, 32]
0.24195085 -0.22313273 -0.2216278 -0.17137313 -0.32607725 0.28537658 0.22983848 0.10383706
0.038986236 -0.06322607 0.15852515 -0.2750529 0.15975837 0.15309899 0.40762788 0.04944133
0.09504372 -0.06850931 -0.16559753 0.25832233 -0.06053703 -0.30923834 0.1648485 -0.20417842
0.08511956 -0.6298116 0.09992099 0.37545162 -0.43498322 0.095417924 0.25784516 0.15083273
-0.2258345 -0.08893127 -0.26259953 0.29716206 0.09816072 -0.14118823 -0.2179894 -0.3081545
0.14905879 -0.26846305 0.09017172 0.46733543 0.048326056 -0.7855552 0.029001195 0.04395567
0.026599428 -0.050432134 -0.01189385 0.1778017 -0.35045853 0.079602145 0.19772212 0.19078606
0.19155225 0.85040385 0.14959003 0.24603835 0.038815755 -0.05973491 -0.32226974 0.095414475
0.23506936 0.013084445 -0.21807955 -0.04986541 0.06364205 -0.077714644 -0.19115534 0.02930677
-0.17035298 0.108754806 -0.0135577405 -0.12017722 0.25102824 0.06836341 -0.17524275 0.12103433
0.29015192 -0.13126202 -0.15637219 0.31757858 0.49943817 -0.04685666 0.59494936 0.04732855
-0.073472075 0.34971222 -0.5039317 -0.2022695 0.3925687 -0.043208975 0.079111904 -0.16821527
0.07210064 -0.25479695 0.41314662 -0.54895127 -0.008395233 0.12330985 -0.08816775 0.011236463
-0.052507967 -0.21066554 0.027737677 -0.1928989 0.09346849 0.29995295 0.053390883 0.24736853
0.19766432 0.15530941 0.46426705 0.18354858 0.2331713 -0.18123217 0.035337888 0.21118526
0.20178577 -0.1110177 0.21462502 0.06415368 -0.065776825 0.017176911 0.28603336 -0.08760848
-0.24314937 -0.09018118 0.36193413 -0.77691025 0.2615752 -0.045442652 0.2015808 0.22235858
0.2064066 0.12801258 0.25978428 0.27558604 0.101051815 -0.41863847 -0.27094546 -0.0009986341
0.28874376 -0.30082676 0.42129114 -0.12725426 0.11359749 -0.004889477 -0.07248132 -0.4370991
0.53791213 -0.44004145 -0.018138366 -0.012228572 0.0786698 0.033437908 0.19219187 0.14573517
-0.23835792 -0.03242361 0.069375105 -0.046994276 -0.050020766 -0.07408612 0.38608727 0.359187
-0.064851925 -0.23012774 -0.07133082 -0.20223767 -0.16945878 -0.47896442 -0.2964488 -0.16773355
-0.18036227 -0.11311532 -0.27176562 -0.003910898 -0.16371389 0.5554753 0.06781819 -0.18069424
0.069345795 -0.42545786 0.43382424 0.25998643 0.31273642 0.3121405 -0.10650309 -0.020956922
0.065119565 0.28933147 0.31231663 0.18245426 -0.30590162 -0.014395169 -0.39346933 0.2965796
0.2477263 0.1688585 -0.06953525 -0.8812495 -0.5062537 0.0016881038 0.17485902 -0.16305858
0.24683112 -0.32602176 0.3260376 -0.088578954 -0.13463691 -0.054236762 -0.068334065 -0.36009246
0.18708822 -0.21381979 -0.35388553 0.17430583 0.009393251 -0.17790624 -0.025068153 0.12030498
0.16919811 -0.0038837274 0.15206924 -0.121650934 -0.21237494 -0.084736474 -0.13743062 0.116428226
0.20008403 0.043576866 0.28516695 -0.48919886 -0.32306698 0.35600683 0.23593882 -0.5937599
-0.24045737 -0.42573163 0.35262376 0.589539 -0.15695597 -0.30984697 -0.41040468 0.17177153
-0.45418134 0.053817462 0.20016758 -0.2596497 -0.19304982 -0.061349723 -0.23640512 -0.16720064
00000000: f7c1 773e e87c 64be 66f2 62be 707c 2fbe
00000010: 99f3 a6be e11c 923e c75a 6b3e 86a8 d43d
00000020: 08b0 1f3d ab7c 81bd 6b54 223e bcd3 8cbe
00000030: b397 233e fbc5 1c3e 9ab4 d03e fe82 4a3d
00000040: 48a6 c23d 9c4e 8cbd 6692 29be d342 843e
00000050: adf5 77bd 7d54 9ebe 0cce 283e 2614 51be
00000060: 2a53 ae3d 553b 21bf 60a3 cc3d 323b c03e
00000070: 1fb6 debe 796a c33d 4804 843e e573 1a3e
00000080: 2941 67be 9921 b6bd 7273 86be a025 983e
00000090: 7d08 c93d a693 10be 9d38 5fbe 6dc6 9dbe
000000a0: dea2 183e fd73 89be f3ab b83d 9746 ef3e
000000b0: 8bf1 453d 251a 49bf ea93 ed3c dc0a 343d
000000c0: 0be7 d93c ed91 4ebd 6cde 42bc a611 363e
000000d0: 4d6f b3be 7306 a33d ab77 4a3e 6c5d 433e
000000e0: 4626 443e 11b4 593f 212e 193e 7af1 7b3e
000000f0: 45fd 1e3d 98ac 74bd 8a00 a5be aa68 c33d
00000100: 06b6 703e 2460 563c 3f50 5fbe ac3f 4cbd
00000110: c356 823d db28 9fbd 3abe 43be c014 f03c
00000120: 0371 2ebe d7ba de3d 4921 5ebc 791f f6bd
00000130: c686 803e 1e02 8c3d d672 33be d9e0 f73d
00000140: cb8e 943e 8d69 06be 0820 20be a999 a23e
00000150: 5cb6 ff3e c5ec 3fbd 9a4e 183f 95db 413d
00000160: 8778 96bd 7b0d b33e ab01 01bf bc1f 4fbe
00000170: c4fe c83e e5fb 30bd 6c05 a23d a040 2cbe
00000180: 80a9 933d bf74 82be f487 d33e 1288 0cbf
00000190: 298c 09bc e089 fc3d 4b91 b4bd 2419 383c
000001a0: 9812 57bd b5b8 57be 203a e33c 4a87 45be
000001b0: 686c bf3d 6f93 993e 66b0 5a3d 2d4e 7d3e
000001c0: 8468 4a3e 6e09 1f3e 69b4 ed3e 29f4 3b3e
000001d0: 75c4 6e3e ed94 39be 76be 103d f340 583e
000001e0: eea0 4e3e 3f5d e3bd a9c6 5b3e 0163 833d
000001f0: 00b6 86bd 98b6 8c3c f772 923e 136c b3bd
00000200: 26fc 78be e9b0 b8bd 6e4f b93e 97e3 46bf
00000210: 2fed 853e 1322 3abd 326b 4e3e f8b1 633e
00000220: 405c 533e bb15 033e 7202 853e 9d19 8d3e
00000230: 41f4 ce3d c857 d6be 5db9 8abe 9ae4 82ba
00000240: 39d6 933e f705 9abe 79b3 d73e f14e 02be
00000250: cda5 e83d e837 a0bb 1671 94bd 74cb dfbe
00000260: 9cb4 093f 1d4d e1be e996 94bc 595a 48bc
00000270: a21d a13d 30f6 083d f2cd 443e 9a3b 153e
00000280: 1914 74be 9fce 04bd 8914 8e3d 127d 40bd
00000290: 93e2 4cbd 77ba 97bd 3bad c53e 5ce7 b73e
000002a0: 16d1 84bd 9ba6 6bbe e515 92bd 6417 4fbe
000002b0: 9a86 2dbe d33a f5be 23c8 97be 58c2 2bbe
000002c0: e3b0 38be 01a9 e7bd dd24 8bbe fe26 80bb
000002d0: 9da4 27be a133 0e3f 43e4 8a3d e907 39be
000002e0: 2b05 8e3d 9dd5 d9be 361e de3e f11c 853e
000002f0: fd1e a03e e1d0 9f3e 4b1e dabd daad abbc
00000300: 685d 853d 4123 943e f7e7 9f3e 4ad5 3a3e
00000310: 239f 9cbe b7d9 6bbc d074 c9be 48d9 973e
00000320: f7ab 7d3e 3ee9 2c3e 7f68 8ebd 9199 61bf
00000330: d899 01bf 5d43 dd3a 3e0e 333e d4f8 26be
00000340: 4cc1 7c3e 53ec a6be 66ee a63e e268 b5bd
00000350: 42de 09be 5e27 5ebd bbf2 8bbd 0a5e b8be
00000360: 0e94 3f3e 93f3 5abe 7c30 b5be 3a7d 323e
00000370: 26e6 193c 0e2d 36be ba5b cdbc 7562 f63d
00000380: 4542 2d3e 2286 7ebb 0ab8 1b3e 2024 f9bd
00000390: d178 59be 518a adbd 9dba 0cbe ec71 ee3d
000003a0: d4e2 4c3e a87d 323d 6701 923e 4678 fabe
000003b0: 0969 a5be 8746 b63e f299 713e a600 18bf
000003c0: 753a 76be 7ff9 d9be 1a8b b43e 07ec 163f
000003d0: 11b9 20be 43a4 9ebe 9020 d2be e0e4 2f3e
000003e0: 758a e8be b36f 5c3d bbf8 4c3e cef0 84be
000003f0: daae 45be d949 7bbd 2f14 72be a536 2bbe

3.bias f4 [32]
-0.22347908 0.012410516 -0.017572304 -0.16529788 0.4248594 0.23765059 -0.055175044 -0.13182782
-0.24300344 -0.039426524 0.041374426 0.15859465 0.09846541 -0.29066116 0.07251019 0.40061355
0.02070287 0.03680051 -0.005424961 -0.17656885 0.12363912 0.0773719 -0.24256383 0.21587342
-0.34855807 -0.13990757 -0.17631166 0.37805706 -0.127151 -0.1766047 -0.0030575239 0.19591376
00000000: b3d7 64be 7a55 4b3c cbf3 8fbc d943 29be
00000010: 2c87 d93e ad5a 733e 3aff 61bd dffd 06be
00000020: e5d5 78be b57d 21bd 3b78 293d a366 223e
00000030: 3ca8 c93d 8ad1 94be 3980 943d 381d cd3e
00000040: 1199 a93c 22bc 163d dfc3 b1bb 77ce 34be
00000050: 8236 fd3d 2975 9e3d a762 78be ec0d 5d3e
00000060: 3476 b2be ee43 0fbe 0b8b 34be b290 c13e
00000070: df33 02be ddd7 34be bd60 48bb 9e9d 483e

5.weight f4 [10, 32]
-0.10137973 -0.10086032 0.20595671 0.16022027 -0.019242799 -0.4112015 0.27221397 0.22039157
0.27737004 -0.15512961 0.13000257 -0.26842564 -0.04098593 -0.71804696 -0.009857463 -0.13022295
0.18249434 -0.18339995 -0.47230452 -0.41471744 0.064268254 -0.08766986 -0.550224 0.04794091
0.18247628 0.19761075 -0.13137315 -0.08513852 -0.07120554 0.17663682 -0.10111018 0.08340594
-0.21117163 0.21755084 0.37802458 -0.5028724 -0.3695712 -0.3362318 -0.40583602 -0.112067685
-0.023916328 0.7599355 0.08786226 0.5198891 0.07664982 -0.60592353 0.6484787 -0.6772537
3.574333e-05 -0.13227947 0.20375009 0.10498168 -0.40092802 -0.6996389 0.26804534 -0.7454157
0.17319642 -0.3970224 0.41273323 -0.0654541 -0.018298099 0.0382182 -0.23475432 -0.62615395
0.040316563 -0.15364696 -0.025073724 0.0948229 0.1457448 0.22583818 -0.11645057 0.41735625
0.16480596 -0.33342853 0.0009956199 -0.1112846 0.026080586 -0.32749313 -0.09540415 0.014505399
0.11606197 0.22546485 0.01604298 -0.5810337 0.11946013 -0.035984214 0.27544698 -0.086939834
-0.7818753 0.2380069 0.2957161 -0.32431644 0.13353837 0.29347628 -0.29561168 -0.27443212
-0.093735024 0.004303975 -0.23564337 -0.30748135 -0.6966218 0.18111634 0.13421883 0.5129261
0.20040181 0.38202322 0.23961289 0.56252533 0.1911342 -0.30434206 -0.5958168 -0.26616675
-0.008484768 0.22997883 0.12764154 -0.39721376 -0.13103321 -0.09933126 -0.50513494 0.087361135
0.03329462 0.015437201 0.04502736 0.039354995 0.046037167 -0.19398966 0.26315957 -0.51506203
0.15858614 0.2032069 -0.34707582 -0.062341683 -0.40579554 0.22153798 -0.20791988 -0.4783051
0.031124916 -0.39448208 0.059238076 -0.083665855 0.16459478 -0.91509056 0.3439765 -0.06328818
0.21664517 -0.3595683 0.02181455 -0.0151948305 0.18203525 0.2847282 0.11337674 -0.34623367
-0.5852854 0.14751738 -0.2665257 0.025865512 0.08407486 0.02822679 -0.18148132 0.056200705
0.109255135 0.29496378 0.04843929 0.19486332 -0.14431746 -0.72636694 -0.9410459 -0.6156374
0.40323 -0.0664094 -0.08161197 -0.9306706 -0.53909236 0.26528496 0.08010578 0.15885304
-0.8476962 -0.0088499095 0.15560992 0.24068075 -0.5351824 -0.2810978 0.3943001 0.29266173
-0.035941985 -0.46618056 -0.37257645 -0.49900836 -0.020390814 -0.53907216 0.05343973 0.20332222
0.37786788 -0.08467868 0.037675247 0.25406542 -0.04855121 0.058093514 0.12407263 -0.96740174
-0.013069384 0.54460293 -0.35031474 0.058437753 0.22096737 -0.34114814 -0.3976195 -0.1316514
0.12662062 0.15900049 -0.4179886 -0.6972986 -0.009258558 -0.32658747 -0.4720744 0.059941165
0.30294594 0.14447956 -0.24488172 -0.093627654 0.0784867 -0.24772388 -0.024516042 0.089437716
-0.5373907 -0.2927467 0.15257125 -0.058454283 0.25347424 -0.43776402 -0.04588512 -0.013584136
-0.37529403 -0.17170447 -1.0718976 -0.28153646 -0.07359594 0.14498118 -0.6403666 -0.37311837
-1.0136396 -0.46871805 0.24221787 0.24599375 -0.41195324 0.038705662 -0.56816554 -0.5569255
-0.78261805 -1.0180974 -0.65632737 0.22396407 -0.10666157 0.2736985 0.2819393 -0.14902736
00000000: 2da0 cfbd db8f cebd 51e6 523e c810 243e
00000010: 13a3 9dbc 0189 d2be a15f 8b3e 54ae 613e
00000020: 7203 8e3e 4cda 1ebe 651f 053e 166f 89be
00000030: dde0 27bd edd1 37bf 3281 21bc 2a59 05be
00000040: ccdf 3a3e 32cd 3bbe e6d1 f1be d855 d4be
00000050: 139f 833d 418c b3bd 7bdb 0cbf b05d 443d
00000060: 10db 3a3e 795a 4a3e af86 06be 1b5d aebd
00000070: 36d4 91bd 48e0 343e db12 cfbd bcd0 aa3d
00000080: 603d 58be a6c5 5e3e 708c c13e 3fbc 00bf
00000090: 7038 bdbe 9326 acbe bdc9 cfbe be83 e5bd
000000a0: 2dec c3bc 228b 423f 21f1 b33d 7417 053f
000000b0: 95fa 9c3d ce1d 1bbf b302 263f 8060 2dbf
000000c0: 1ceb 1538 4574 07be dda3 503e a300 d73d
000000d0: 7046 cdbe 891b 33bf 3d3d 893e 90d3 3ebf
000000e0: 675a 313e 8546 cbbe c551 d33e cd0c 86bd
000000f0: e5e5 95bc b08a 1c3d 7063 70be a04b 20bf
00000100: fb22 253d a155 1dbe 6967 cdbc 8232 c23d
00000110: 203e 153e 2042 673e a37d eebd b8af d53e
00000120: e5c2 283e 25b7 aabe 767f 823a 2ee9 e3bd
00000130: f4a6 d53c 2ead a7be 4063 c3bd 0ea8 6d3c
00000140: e6b1 ed3d 42e0 663e 916c 833c a0be 14bf
00000150: 83a7 f43d 2f64 13bd 6307 8d3e 830d b2bd
00000160: fb28 48bf 15b8 733e 1a68 973e ce0c a6be
00000170: 48be 083e 8642 963e 6a5a 97be 5e82 8cbe
00000180: 26f8 bfbd 5c08 8d3b 7f4c 71be 326e 9dbe
00000190: ce55 32bf 9076 393e a970 093e 204f 033f
000001a0: 2236 4d3e 8c98 c33e 155d 753e a901 103f
000001b0: afb8 433e b9d2 9bbe 7387 18bf 0247 88be
000001c0: b203 0bbc 927f 6b3e 77b4 023e 9a5f cbbe
000001d0: 922d 06be 306e cbbd 8650 01bf 65ea b23d
000001e0: f15f 083d 50ec 7c3c 9c6e 383d b432 213d
000001f0: 7891 3c3d 3aa5 46be dabc 863e 1bdb 03bf
00000200: 6864 223e 7815 503e ecb3 b1be fe59 7fbd
00000210: 6fc4 cfbe dada 623e f3e8 54be 68e4 f4be
00000220: aef9 fe3c 8ef9 c9be a0a3 723d 0159 abbd
00000230: 898b 283e 6043 6abf b01d b03e 3c9d 81bd
00000240: 3bd8 5d3e 5619 b8be 6db4 b23c bdf3 78bc
00000250: 7367 3a3e e5c7 913e 1032 e83d 8a45 b1be
00000260: 44d5 15bf cc0e 173e 0e76 88be e9e3 d33c
00000270: 712f ac3d de3b e73c 3dd6 39be b632 663d
00000280: 28c1 df3d 7e05 973e 4768 463d 408a 473e
00000290: f5c7 13be 2ff3 39bf 62e8 70bf 6a9a 1dbf
000002a0: 2a74 ce3e a701 88bd 2d24 a7bd 6e40 6ebf
000002b0: f501 0abf 6ed3 873e 800e a43d 5faa 223e
000002c0: 9e02 59bf 36ff 10bc 3558 1f3e 0475 763e
000002d0: b701 09bf 0dec 8fbe b4e1 c93e c2d7 953e
000002e0: e737 13bd 38af eebe 57c2 bebe 067e ffbe
000002f0: a30a a7bc a200 0abf 9ee3 5a3d b333 503e
00000300: e677 c13e 046c adbd 5c51 1a3d dd14 823e
00000310: a2dd 46bd 77f3 6d3d cb19 fe3d a4a7 77bf
00000320: f820 56bc 196b 0b3f 745c b3be 6d5c 6f3d
00000330: 4545 623e f8aa aebe c894 cbbe a0cf 06be
00000340: d6a8 013e 06d1 223e 9a02 d6be 2982 32bf
00000350: 35b1 17bc 7936 a7be bcb3 f1be de84 753d
00000360: bb1b 9b3e 73f2 133e 46c2 7abe dbbf bfbd
00000370: a3bd a03d 54ab 7dbe ded5 c8bc 1f2b b73d
00000380: 7092 09bf e5e2 95be a33b 1c3e c26d 6fbd
00000390: 60c7 813e 9b22 e0be 09f2 3bbd ff8f 5ebc
000003a0: 8a26 c0be 4cd3 2fbe f133 89bf 8c25 90be
000003b0: 78b9 96bd f275 143e 11ef 23bf 5f09 bfbe
000003c0: f1be 81bf d0fb efbe f607 783e c9e5 7b3e
000003d0: 89eb d2be d489 1e3d 4c73 11bf ab92 0ebf
000003e0: a859 48bf 0451 82bf 1205 28bf d656 653e
000003f0: 6271 dabd 3622 8c3e 595a 903e a19a 18be

5.bias f4 [10]
0.031912837 0.08885487 -0.071902044 0.058897536 0.15024318 -0.117374234 0.091556616 0.035547186
0.58229977 0.03981868
00000000: 09b7 023d 8bf9 b53d 6141 93bd 8b3e 713d
00000010: 59d9 193e e761 f0bd 0982 bb3d ed99 113d
00000020: 9911 153f ea18 233d
