simple_cnn_fashion_mnist_sequential.onnx (onnx, 126879 bytes, 4 tensors)

0.weight f4 [16, 1, 3, 3]
0	0x3e8b3bb7	0.27193996
1	0x3ec3e38c	0.38259542
2	0xbe3b2135	-0.18274386
3	0x3f00003d	0.50000364
4	0xbf10d344	-0.56572366
5	0x3e30a317	0.17249714
6	0xbf05eccb	-0.5231444
7	0xbd31992b	-0.043358963
8	0x3ed5c319	0.4175041
9	0xbdd0b20a	-0.10190208
10	0xbe950dba	-0.29112035
11	0xbe000e77	-0.12505518
12	0xbe230867	-0.15921174
13	0xbeeabd11	-0.4584737
14	0xbe93cd39	-0.2886751
15	0xbdd90217	-0.10596102
16	0x3d7da5b6	0.061925612
17	0x3e24a852	0.16079834
18	0xbe737302	-0.23774341
19	0x3e08f9db	0.13376562
20	0x3de94281	0.11389638
21	0xbf0f22e6	-0.55912626
22	0x3f44149d	0.76593953
23	0xbe53f29b	-0.20698015
24	0xbdcf9dea	-0.101375416
25	0x3f10e85d	0.5660456
26	0xbeeca21f	-0.4621744
27	0xbeab7a39	-0.33491686
28	0xbe101556	-0.14070639
29	0x3f06594d	0.5248001
30	0xbeb5a30f	-0.35475966
31	0x3e6be924	0.23038155
32	0x3d253c15	0.0403405
33	0xbe6a2026	-0.22863826
34	0xbe6fc05c	-0.23413223
35	0xbf0d1fe2	-0.55126774
36	0xbf0023b9	-0.5005451
37	0x3ed6d339	0.41958025
38	0x3e9e292f	0.30890796
39	0xbf07b164	-0.5300505
40	0xbca0bc9f	-0.019621192
41	0x3ec50cf2	0.3848644
42	0xbe9e36c5	-0.3090116
43	0xbe29a603	-0.16567235
44	0x3ee60ec5	0.44933143
45	0xbf0950e1	-0.53639036
46	0xbed00911	-0.40631917
47	0x3dd1f205	0.1025124
48	0x3f02afb5	0.5104936
49	0xbd935fe1	-0.07196022
50	0x3ee40d6a	0.44541484
51	0x3e04a50d	0.12953587
52	0xbeb4270d	-0.35186043
53	0xbeccfc90	-0.4003644
54	0x3e951bfc	0.29122913
55	0x3edceae2	0.4314795
56	0xbdd890fe	-0.1057453
57	0xbef981df	-0.48731896
58	0xbddae113	-0.10687461
59	0xbeed1705	-0.46306625
60	0xbe6b5e28	-0.22985137
61	0x3ef235d7	0.47306702
62	0x3e372a8d	0.17887326
63	0xbe8cab94	-0.27474654
64	0x3e65442a	0.22389284
65	0x3d93c639	0.07215542
66	0xbec18d18	-0.37802958
67	0x3eab795f	0.33491036
68	0x3d3bc66c	0.045843527
69	0x3ed51ff6	0.41625947
70	0x3e5863c5	0.21131809
71	0xbf209ee1	-0.6274243
72	0xbec84794	-0.3911711
73	0x3e6ae579	0.229391
74	0x3e80e557	0.25174972
75	0xba308128	-0.0006733113
76	0xbccadf78	-0.024764761
77	0xbe85f5de	-0.26164144
78	0xbe8646e1	-0.2622595
79	0xbeab6872	-0.33478123
80	0x3eb7d46f	0.3590426
81	0xbe2d6c37	-0.16935812
82	0xbed6ad72	-0.41929203
83	0x3f07ffd7	0.53124756
84	0x3e71aa36	0.23600087
85	0x3ed15207	0.40882894
86	0x3df84036	0.12121622
87	0xbd5f79dd	-0.054559577
88	0x3c41510b	0.011799107
89	0xbf2603f6	-0.64849794
90	0xbefb01a5	-0.49024692
91	0xbe5b42d0	-0.21412206
92	0x3eb05383	0.34438714
93	0x3ee04378	0.43801475
94	0x3ef80bee	0.48446602
95	0xbea14207	-0.31495687
96	0x3ec55e75	0.38548627
97	0x3ec8e048	0.39233613
98	0xbf4affda	-0.7929665
99	0x3da51755	0.08061091
100	0x3e05d8ed	0.13071032
101	0x3e7b3f6c	0.24535912
102	0x3b9f41f2	0.004860156
103	0x3e173140	0.14764881
104	0x3ed95eac	0.4245504
105	0x3e3cd491	0.18440463
106	0x3c267ddd	0.010161844
107	0xbec27e2e	-0.37986892
108	0x3d9e0f0d	0.077177145
109	0xbf0cf614	-0.55062985
110	0x3ea757a3	0.3268405
111	0x3ef89c8b	0.48556933
112	0xbee34872	-0.4439121
113	0xbd408793	-0.047004294
114	0x3e71b119	0.23602714
115	0xbc982215	-0.01857094
116	0xbe1e622e	-0.1546714
117	0xbdc37126	-0.09543066
118	0xbec22cdb	-0.37924847
119	0xbf1c3070	-0.6101141
120	0x3e7435a8	0.23848593
121	0x3e3cee8d	0.18450375
122	0x3db13145	0.086519755
123	0xbd88f929	-0.066881485
124	0x3f1fb295	0.6238187
125	0x3c88ad3e	0.01668417
126	0x3e9aedd5	0.30259576
127	0xbe706a06	-0.23477945
128	0xbf1793e1	-0.5921002
129	0xbec3b0b9	-0.38220766
130	0xbe5cf30c	-0.2157709
131	0x3ced6317	0.028977914
132	0x3c4b557b	0.012410517
133	0x3f129b2c	0.57268023
134	0x3efe01f5	0.49610868
135	0x3e2a08e9	0.16604961
136	0xbecd2629	-0.40068176
137	0x3e8afec3	0.27147493
138	0xbe507fff	-0.20361327
139	0xbe1e0238	-0.15430534
140	0x3eb36da2	0.3504458
141	0xbe24f207	-0.16107951
142	0x3e4a1bbd	0.19737144
143	0x3b382981	0.002810091

0.bias f4 [16]
0	0xbd94c7d1	-0.072646745
1	0xbf594671	-0.8487311
2	0xbb1f389e	-0.002429522
3	0xbf4f522a	-0.8098475
4	0xbc66d0b3	-0.014087844
5	0xbf06adcf	-0.5260896
6	0xbe608971	-0.2192743
7	0xbbec9fe9	-0.007221211
8	0xbee6b11a	-0.45056993
9	0xbc0c4d56	-0.00856336
10	0xbe427d30	-0.18993068
11	0xbe609e33	-0.21935348
12	0xbe41c566	-0.18922958
13	0xbdc3b939	-0.09556813
14	0xbd940d2f	-0.07229077
15	0x3c147bf6	0.009062758

4.weight f4 [10, 3136]
0	0x3e1483c9	0.14503397
1	0xbdf662b1	-0.12030543
2	0xbe3e54c8	-0.18587029
3	0x3d95a434	0.0730671
4	0x3c4f8fb0	0.012668535
5	0x3db4954e	0.0881754
6	0xbd35c797	-0.044379797
7	0xbe81a310	-0.2531972
8	0x3dcdc902	0.10048105
9	0x3e090f45	0.13384731
10	0x3e820d34	0.25400698
11	0x3e3b9d3b	0.18321697
12	0xbdcdeab3	-0.10054531
13	0x3bc98302	0.0061496506
14	0xbdd98a10	-0.106220365
15	0xbda046cb	-0.07826003
16	0xbdc20462	-0.09473492
17	0xbe307511	-0.17232157
18	0xbdb57f55	-0.08862177
19	0x3d40f406	0.04710772
20	0xbce491be	-0.027901527
21	0x3d9a8e38	0.07546657
22	0x3dead4fc	0.11466405
23	0x3bb3233c	0.0054668467
24	0xbd389ad8	-0.045069546
25	0x3e003c91	0.12523104
26	0x3cad1ff6	0.021133404
27	0x3dd4f273	0.10397806
28	0xbe15738f	-0.14594863
29	0xbd49732e	-0.04918211
30	0xbe149c79	-0.14512815
31	0xbd4ea321	-0.05044854
32	0xbd5237ca	-0.051322736
33	0xbd44c7ff	-0.048042294
34	0xbcf9e38c	-0.03050401
35	0xbce60f37	-0.028083427
36	0x3d1ccf56	0.03828367
37	0x3db7d411	0.08975995
38	0x3cfd1339	0.030892955
39	0xbda01a28	-0.07817489
40	0x3ce28d09	0.027655141
41	0x3b92d720	0.0044812113
42	0x3d978366	0.07398109
43	0xbd82376e	-0.063582286
44	0xbd87e38f	-0.066352
45	0xbda7db14	-0.08196083
46	0xbcef8491	-0.029238017
47	0xbde0e968	-0.10982019
48	0x3c4639ce	0.012098743
49	0x3c9d87dd	0.019229824
50	0x3d12145c	0.035663947
51	0x3d36a355	0.04458936
52	0x3d3fcf6c	0.046828672
53	0xbcbbefb3	-0.022941446
54	0x3dcfa333	0.1013855
55	0x3dab86d3	0.08375325
56	0xbb7bd80e	-0.003842834
57	0xbdf91893	-0.1216289
58	0xbdce0201	-0.10058976
59	0x3c0d322a	0.008617917
60	0xbdd4d331	-0.10391844
61	0x3c751d4f	0.014960601
62	0xbc6b1bee	-0.014349921
63	0xbbe84f6b	-0.0070895455
64	0x3d8ce908	0.06880385
65	0x3da4bd5f	0.08043932
66	0x3d4dbdcb	0.05022983
67	0xbe012035	-0.12609942
68	0xbde18faf	-0.110137336
69	0x3c2339ee	0.009962542
70	0x3d08ef4c	0.033431336
71	0x3d1a076f	0.037604745
72	0xbdfa5423	-0.12223079
73	0x3daaf619	0.08347721
74	0xbd977b08	-0.07396513
75	0xbc8b12aa	-0.016976673
76	0xbcde16db	-0.027110508
77	0x3d0786f3	0.033087682
78	0x3bb4e716	0.0055207117
79	0x3d1f733e	0.038928263
80	0xbdf6f1a9	-0.12057812
81	0xbdeb7e26	-0.1149867
82	0xbe2798f9	-0.16366948
83	0xbbb60a8a	-0.0055554556
84	0x3cb26a38	0.021779165
85	0x3b4d2726	0.0031303852
86	0xbd933d56	-0.07189433
87	0xbd06e955	-0.032937367
88	0xbd6c8fdc	-0.057754382
89	0xbc7f1421	-0.015568764
90	0xbd9e0767	-0.07716256
91	0xbda09d26	-0.07842474
92	0x3d15ed50	0.036603272
93	0xbd9df1c9	-0.077121325
94	0x3c3430aa	0.010997931
95	0xbdc28137	-0.09497302
96	0xbe1f38a4	-0.1554895
97	0xbe02d99b	-0.12778322
98	0x3d1df7bb	0.038566332
99	0x3d1a0268	0.03759995
100	0xbd51f1af	-0.051255878
101	0xbd6d9e27	-0.058012154
102	0xbe0978cb	-0.13424985
103	0x3d289ad9	0.0411633
104	0xbdc4c0a1	-0.096070535
105	0xbd639651	-0.055563275
106	0x3b54ac2b	0.0032451253
107	0xbd9c0db8	-0.07619804
108	0xbd31bf18	-0.04339513
109	0x3d3bedee	0.045881204
110	0xbe0039a6	-0.12521991
111	0xbda6ca0e	-0.081440076
112	0x3b5b5d7b	0.0033472467
113	0x3deb4a85	0.11488823
114	0x3da529bb	0.080646
115	0xbc5f43bd	-0.01362699
116	0xbcaace9e	-0.020850476
117	0xbc3d9cff	-0.011573075
118	0xbd5bb432	-0.053638645
119	0xbbf0cef3	-0.007348889
120	0xbb98de89	-0.0046652
121	0xbdc074f2	-0.093973055
122	0x3c0e3a69	0.008680918
123	0xbb9961b8	-0.0046808384
124	0x3d595d29	0.05306736
125	0xbe066f90	-0.13128495
126	0xba8619ae	-0.0010231042
127	0x3dd5e026	0.104431435
128	0x3b6b8c92	0.003594194
129	0xbb590e55	-0.0033120115
130	0xbd1964ff	-0.037449833
131	0xbcb77bf0	-0.022397965
132	0xbd6c6dea	-0.05772201
133	0xbd2ca66f	-0.04215091
134	0xbc6b8c49	-0.014376708
135	0x3c3abe06	0.011397844
136	0xbddd4153	-0.10803475
137	0xbdd12136	-0.102114126
138	0xbd3003d1	-0.04297239
139	0xbd441d3b	-0.04787944
140	0xbd121066	-0.03566017
141	0x3d92cd71	0.07168091
142	0xbd669957	-0.05629858
143	0x3d88ce2c	0.06679949
144	0xbcb9a02b	-0.022659382
145	0x3db54e82	0.08852865
146	0xbd731cb2	-0.059353538
147	0xbdc192dc	-0.09451839
148	0xbd08b30c	-0.033373877
149	0x3d17b7e2	0.0370406
150	0x3d803a4c	0.06261119
151	0xbd1a08be	-0.037605993
152	0x3d123ec5	0.035704393
153	0xbe6fab6a	-0.23405233
154	0x3cdb0596	0.026736062
155	0x3d9662a2	0.073430315
156	0x3e189c46	0.14903364
157	0xbbf15dbc	-0.0073659103
158	0x3d594334	0.053042606
159	0xbc86d536	-0.016459089
160	0xbc581b72	-0.013190137
161	0xbd1dab34	-0.03849335
162	0x3db8529f	0.09000134
163	0x3d9b8f9a	0.07595749
164	0x3d2dad65	0.04240169
165	0x3dad779b	0.084700786
166	0xbdc704cc	-0.09717712
167	0xbe3d8352	-0.18507126
168	0x3d7e58eb	0.062096518
169	0x3d4ad020	0.04951489
170	0x3dd3c7d5	0.10340849
171	0xbdc10eae	-0.09426628
172	0x3e2763a5	0.16346605
173	0x3e356756	0.17715201
174	0xbada2586	-0.0016643263
175	0xbd148b16	-0.036265455
176	0x3e0aa25c	0.13538498
177	0x3e0d6491	0.13807894
178	0x3e2e3706	0.17013177
179	0x3e1f3994	0.15549308
180	0xbdb60b4b	-0.08888873
181	0x3d7309cf	0.059335526
182	0x3d289eb9	0.041166995
183	0x3e77026c	0.24122018
184	0x3d8671a5	0.06564645
185	0xbd9db8f4	-0.07701293
186	0xbda495a5	-0.08036355
187	0x3abc951c	0.00143877
188	0xbc7d127b	-0.015446301
189	0x3c011f5c	0.007881012
190	0xbd0c67ab	-0.034278553
191	0x3e1be089	0.15222372
192	0xbd8b5f29	-0.0680526
193	0xbd193911	-0.03740794
194	0x3bee607b	0.007274685
195	0x3ce21705	0.027598867
196	0xbc9aa156	-0.01887576
197	0xbc345c49	-0.011008331
198	0x3d258e47	0.04041889
199	0x3d6a98db	0.05727468
200	0x3d55a184	0.052155986
201	0x3cd890e6	0.02643628
202	0x3e267e94	0.16259223
203	0x3e1688be	0.147006
204	0xbdc06244	-0.09393743
205	0xbd03b024	-0.032150403
206	0xbd195858	-0.037437767
207	0x3d1e8ea1	0.03871024
208	0xbc9c2407	-0.019060148
209	0xbb368d05	-0.002785505
210	0xbc109858	-0.008825384
211	0x3c3411a1	0.010990531
212	0x3d9f41d5	0.07776228
213	0xbd5ded01	-0.054181103
214	0xbd3fb8db	-0.04680715
215	0x3e14fd74	0.1454981
216	0x3dfc709b	0.12326165
217	0x3d4a91fc	0.049455628
218	0x3cd5f537	0.026117904
219	0xbb474c6e	-0.0030410546
220	0xbddab605	-0.10679249
221	0x3cff0dac	0.031134449
222	0xbc8dafcb	-0.017295739
223	0x3b49eafb	0.0030810225
224	0xbbd85e7e	-0.006603061
225	0xba4d27f1	-0.0007826081
226	0xba986807	-0.0011627682
227	0xbdbf5479	-0.09342284
228	0xbd68d833	-0.05684681
229	0x3e279d4d	0.16368599
230	0x3e0d5fc6	0.13806066
231	0x3dfd5508	0.12369734
232	0x3e8af5a4	0.27140534
233	0x3d03dd37	0.03219339
234	0xbe447456	-0.19185004
235	0xbe1eb4e9	-0.15498699
236	0xbd3f6c06	-0.04673388
237	0x3aeeb51d	0.0018211935
238	0xbc80992f	-0.015698044
239	0xbcb3b135	-0.021935085
240	0xbe3a0373	-0.18165378
241	0xbd902b2e	-0.07039486
242	0xbe441277	-0.19147669
243	0xbd56c77f	-0.052436348
244	0x3df23670	0.118267894
245	0x3d8a280e	0.06745921
246	0xbceb158b	-0.028696796
247	0xbe465120	-0.19366884
248	0xbce53b2b	-0.027982315
249	0xbe8d5afe	-0.27608484
250	0xbd38f83d	-0.045158613
251	0xbc736ae9	-0.014857032
252	0xbd04a71c	-0.03238593
253	0xbd95f609	-0.07322318
254	0xbe68b244	-0.22724253
255	0xbe3132ef	-0.17304586

4.bias f4 [10]
0	0x3cea8ded	0.028632129
1	0xbc9314af	-0.017954199
2	0x3d167d21	0.036740426
3	0x3c1d5668	0.00960312
4	0xbcf42e8e	-0.029807355
5	0xbd29c51e	-0.04144775
6	0xbc86def1	-0.016463729
7	0xbc00947c	-0.007847901
8	0x3ce3acea	0.027792413
9	0x3cec97d7	0.028880997
